…
x)\n        x = self.relu(x)\n        x = self.linear2(x)\n        return x \n\nnet = Net()\nprint(net)\n```\n\nConv2d: 二维卷积层, 把图片通过一组filter变换成新的多通道特征.\n\nMaxPool2d: 池化层, 压缩图片数据, 保留重要信息.\n\nDropout2d: 丢弃层, 随机遮挡一部分数据, 迫使网络不过度依赖某几个通道, 而是学会更普遍的特征.\n\nReLu: 激活函数.\n\n可以利用`torchkeras.summary(net, input_data = features)`总结网络结构, 输出如下.\n\n```\n--------------------------------------------------------------------------\nLayer (type)                            Output Shape              Param #\n==========================================================================\nConv2d-1                            [-1, 32, 30, 30]                  896\nMaxPool2d-2                         [-1, 32, 15, 15]                    0\nConv2d-3                            [-1, 64, 11, 11]               51,264\nMaxPool2d-4                           [-1, 64, 5, 5]                    0\nDropout2d-5                           [-1, 64, 5, 5]                    0\nAdaptiveMaxPool2d-6                   [-1, 64, 1, 1]                    0\nFlatten-7                                   [-1, 64]                    0\nLinear-8                                    [-1, 32]                2,080\nReLU-9                                      [-1, 32]                    0\nLinear-10                                    [-1, 1]                   33\n==========================================================================\nTotal params: 54,273\nTrainable params: 54,273\nNon-trainable params: 0\n--------------------------------------------------------------------------\nInput size (MB): 0.000076\nForward/backward pass size (MB): 0.359627\nParams size (MB): 0.207035\nEstimated Total Size (MB): 0.566738\n--------------------------------------
…
atten\",nn.Flatten())\n        # 把摊平后的向量压缩到一个线性值, 6144是摊平后的长度\n        self.dense.add_module(\"linear\",nn.Linear(6144,1))\n\n    def forward(self,x):\n        x = self.embedding(x).transpose(1,2)\n        x = self.conv(x)\n        y = self.dense(x)\n        return y\n        \nnet = Net() \nprint(net)\n```\n\n模型summary如下.\n\n```\n--------------------------------------------------------------------------\nLayer (type)                            Output Shape              Param #\n==========================================================================\nEmbedding-1                             [-1, 200, 3]               89,772\nConv1d-2                               [-1, 16, 196]                  256\nMaxPool1d-3                             [-1, 16, 98]                    0\nReLU-4                                  [-1, 16, 98]                    0\nConv1d-5                               [-1, 128, 97]                4,224\nMaxPool1d-6                            [-1, 128, 48]                    0\nReLU-7                                 [-1, 128, 48]                    0\nFlatten-8                                 [-1, 6144]                    0\nLinear-9                                     [-1, 1]                6,145\n==========================================================================\nTotal params: 100,397\nTrainable params: 100,397\nNon-trainable params: 0\n--------------------------------------------------------------------------\nInput size (MB): 0.000076\nForward/backward pass size (MB): 0.287788\nParams size (MB): 0.382984\nEstimated Total Size (MB): 0.670849\n------------------------------------
…
